Traceback (most recent call last):
  File "train.py", line 6, in <module>
    import torch
ModuleNotFoundError: No module named 'torch'
Net(
  (conv1): Conv2d(1, 32, kernel_size=(5, 5), stride=(1, 1))
  (conv1_bn): BatchNorm2d(32, eps=1e-05, momentum=0.1, affine=True, track_running_stats=True)
  (conv1_drop): Dropout2d(p=0.1)
  (conv2): Conv2d(32, 48, kernel_size=(5, 5), stride=(1, 1))
  (conv2_bn): BatchNorm2d(48, eps=1e-05, momentum=0.1, affine=True, track_running_stats=True)
  (conv2_drop): Dropout2d(p=0.1)
  (conv3): Conv2d(48, 64, kernel_size=(5, 5), stride=(1, 1))
  (conv3_bn): BatchNorm2d(64, eps=1e-05, momentum=0.1, affine=True, track_running_stats=True)
  (conv3_drop): Dropout2d(p=0.2)
  (conv4): Conv2d(64, 96, kernel_size=(5, 5), stride=(1, 1))
  (conv4_bn): BatchNorm2d(96, eps=1e-05, momentum=0.1, affine=True, track_running_stats=True)
  (conv4_drop): Dropout2d(p=0.2)
  (fc1): Linear(in_features=9600, out_features=2400, bias=True)
  (fc1_bn): BatchNorm1d(2400, eps=1e-05, momentum=0.1, affine=True, track_running_stats=True)
  (fc1_drop): Dropout(p=0.2)
  (fc2): Linear(in_features=2400, out_features=612, bias=True)
  (fc2_bn): BatchNorm1d(612, eps=1e-05, momentum=0.1, affine=True, track_running_stats=True)
  (fc2_drop): Dropout(p=0.4)
  (fc3): Linear(in_features=612, out_features=136, bias=True)
)
Number of images:  3462
0 torch.Size([1, 224, 224]) torch.Size([68, 2])
1 torch.Size([1, 224, 224]) torch.Size([68, 2])
2 torch.Size([1, 224, 224]) torch.Size([68, 2])
3 torch.Size([1, 224, 224]) torch.Size([68, 2])
/home/ubuntu/anaconda3/envs/pytorch_p36/lib/python3.6/site-packages/matplotlib/__init__.py:1067: UserWarning: Duplicate key in file "/home/ubuntu/.config/matplotlib/matplotlibrc", line #2
…
